traffic_sign_model.tflite (tflite, 502628 bytes, 10 tensors)

arith.constant f4 [64]
00000000: 0055 813e 1572 8f3d 37de a93d 6e4c 47bb
00000010: 3533 133e bfb3 873e f327 a6bc 9cde 1abd
00000020: cd4f 483e 2b40 4b3e 71eb eb3d 7ca9 1fbc
00000030: 9584 1abc b00b ee3d cd59 3a3e 8dfc 1d3d
00000040: 7330 6abd c74b c73c 2620 433e 717e 3abd
00000050: 46fe 533e 7136 a2bc 769c 7b3d d0ab cd3b
00000060: cf75 783d fbf8 14bc 3d68 853d a259 1abd
00000070: 8d12 f8bc f47c 543d 599c 9f3d b62c dc3c
00000080: faab 4abc 582e 323e 4176 66bd 0ad7 e03c
00000090: 191a 4ebc a7f2 a5bd d998 043e 57a0 95bc
000000a0: fa44 d9bb c88a 7bbc 8e23 113e c217 c3bc
000000b0: 57a1 30bd f30c 223e b61b 22bc 4c18 da3d
000000c0: 668e c5bb 3a4e 883e 2c2c 0ebc 746b 67bd
000000d0: 35bf 253e 963f 2f3e 4f5a 45bd fc0d fdbd
000000e0: 4119 6a3d c3b8 5c3d 9b53 8e3d 3c97 043a
000000f0: c16f 1dbd 0291 133e 6208 8bbb 019b 88bc
0.25260162 0.07004181 0.08294337 -0.0030410546 0.14375003 0.26504323 -0.020282721 -0.037809953
0.19561692 0.19848697 0.11519516 -0.009744998 -0.009431024 0.11623323 0.18198319 0.03857093
-0.05717511 0.024328126 0.19055232 -0.04553074 0.20702466 -0.01980135 0.06142851 0.006276585
0.060659226 -0.009092565 0.065140225 -0.037683137 -0.030282283 0.051876977 0.07793493 0.026876789
-0.012370104 0.17400491 -0.05626512 0.027446289 -0.012579464 -0.08102923 0.12948932 -0.018264933
-0.006630537 -0.015352912 0.1417372 -0.02381504 -0.043122616 0.15825252 -0.009894302 0.106491655
-0.006028938 0.26622182 -0.008677524 -0.05649896 0.16186221 0.171141 -0.048181828 -0.12356183
0.05715299 0.05388714 0.0694954 0.0005057936 -0.038436655 0.14410785 -0.0042429427 -0.016675474

arith.constant1 f4 [64]
00000000: d63b c83d 3151 c53c e8e1 18bd 1e6a 57bc
00000010: f4b3 e13d ffe4 f8bc f7dd 7b3d e3c8 293e
00000020: 3fc1 0a3e 2f6d 353e 8e39 60bd 82d5 32bc
00000030: 246c 3d3d 1c92 07bd 815e 493d 0c7c 1e3c
00000040: cc89 18bd a65d 6cbc 0960 1fbd 83af 863d
00000050: 83a0 863e 3154 1e3e ed7e 643d 583f 3e3d
00000060: a067 2fbc e9a7 dc3d 5572 253d abe6 0a3e
00000070: 2279 64bd fb55 25be ac82 193d a4b7 3abc
00000080: ad06 513e 2cd0 55bd 5f05 133e 2e9e 273e
00000090: 4fb9 903e 52a7 0bbd 0ddb acbc bd62 053e
000000a0: 6974 07bc fb9d 963d 5044 e33d 8071 d9bd
000000b0: 951a 213e 912f c63d 7db5 e6bc e48d d6bc
000000c0: 4c3a 7dbc a420 5f3d 5c1e 0bbe 46eb 813e
000000d0: 5279 cabb 3c24 a0bc 857a 353e b6d0 6b3d
000000e0: 2cfa eabc 43fe e93d cff6 7ebc 07c2 173d
000000f0: 31db 4f3d 6dac 3e3d fb79 54bc 14e4 f63d
0.09777038 0.024086567 -0.037324816 -0.013147859 0.110206515 -0.030382631 0.06149098 0.16580538
0.1355028 0.17717431 -0.05474239 -0.010915162 0.04624571 -0.033098325 0.04916239 0.00967313
-0.03724079 -0.014426624 -0.038909946 0.06576445 0.26294336 0.15461804 0.05578511 0.046447128
-0.0107058585 0.10774214 0.04039224 0.13564555 -0.055779584 -0.1614608 0.037478134 -0.011396322
0.20412703 -0.05220048 0.14357518 0.16368935 0.2826638 -0.034095116 -0.021100545 0.13025947
-0.0082675 0.07354351 0.11097014 -0.106173515 0.15732796 0.09677041 -0.028162712 -0.026190706
-0.015455794 0.054474488 -0.135858 0.25374812 -0.0061790133 -0.019548528 0.17722519 0.05757209
-0.028683744 0.1142545 -0.015561773 0.037050273 0.050746147 0.046551157 -0.012968536 0.12055221

arith.constant2 f4 [64, 3, 3, 64]
00000000: 3643 cb3d a2b1 a2bc e3c3 74bc a5e4 063c
00000010: c5ce 303e ea51 cd3d 2fe7 2abe 70b7 c93c
00000020: 1976 59bd 3296 093e 82b4 35bd ead8 5dbc
00000030: 255c 263e 0840 8abd 1094 a93d f8de 213d
00000040: e120 703b b219 a9bc e1f8 41bd 5247 23be
00000050: a805 54bd 6124 a73d 200b 7c3c 74b3 c6bd
00000060: 0613 8ebd 37d2 3cbb 001f 0bbe 917c 113e
00000070: ae2d c2bd c3d9 283e 919a b63d eac8 7f3d
00000080: 8a0f 72be 00e7 22be 6c85 b4bd 2450 153d
00000090: f769 3c3e 14b2 67bc b8ff 2abd 06fa 8cbd
000000a0: 1f43 4f3c 4ba7 71bd 64aa f13b bae5 9cbd
000000b0: 5b88 87bd 1142 733d def8 a6bc 5605 193d
000000c0: de5b 6dbd f13d d73b 839b 67bc ded2 c83d
000000d0: 00ff c63b 4854 2d3d 9e08 c9bc 90dc ebbd
000000e0: 5ee7 89bc d0c1 f4bd 3df8 1b3c 0fd4 71bd
000000f0: 1caf 183d 70c2 1e3e e59d 633d 7ed1 11be
00000100: 7946 abbd 8231 9bbc 35a0 df3d 8727 dc3c
00000110: 267a d1bd 9e34 2f3d 5c35 4c3e 3515 18bc
00000120: d74d 1a3e 5b61 80be ceb7 dbbc 726a 11bd
00000130: 925b ac3c 6a36 d7bd 19b8 0ebc 70e4 dcbb
00000140: 16da eabc 24dc 453d f1ad 0fbe bfb3 8cbb
00000150: 82ca 433d 75a5 84bd 843f 1bbc 1e84 303e
00000160: 7a28 173c b555 32bc 8d3b 0dbe 7929 053d
00000170: dc90 6fbd b86e 09be 6d93 f03c 715f 1bbd
00000180: 18b7 83bc 22aa b5bd d964 cabc 7081 aabc
00000190: 7654 f73d 752a 87bb dc29 013d 44e9 8cbe
000001a0: b465 88bc c9a4 b5bd 3697 3bbe 1083 1dbe
000001b0: 1dce 9b3d 662c bebc 7544 65bd f961 753b
000001c0: f6aa 13bc 3e9d b53d 9734 8abe 7462 80be
000001d0: 51b0 52bd 021d 8b3d ea78 d5bd 2e09 00be
000001e0: 10a1 44bd 31f3 0e3e 9804 ddbc 2214 423c
000001f0: 881f 423d 40f1 df3d 1610 413c 1c98 53be
00000200: eba2 173e fcff 313d a160 163d 1db4 7cbd
00000210: 232a 30be e686 5cbd 2208 f1bc 2b6e 0a3e
00000220: 236b 123e 40cc 803d fe04 c1bc 8924 6abd
00000230: 5ee1 5dbd bb0d 21bc 5972 b33b fefb 173e
00000240: 8686 04bd d0a0 5bbc 1b9a bebd 3976 60be
00000250: 39f1 753e f6fa 863d b2d8 5bbd 1944 d83c
00000260: f8f9 82bd a049 bc3b 6347 c33d 8a1d 1abd
00000270: bdb8 6bbe f20c d03b 1bac c8bd 7a9d 0cbd
00000280: fc88 833e 147d 1cbc fd67 713d de3e 6dbd
00000290: 273e 98bd e92c 4d3d 911e 82bc 67b7 eebd
000002a0: 9a16 b23d 77e7 0d3d 7dd6 eb3d a7f8 f23d
000002b0: c43f 11bd c582 693d c80f e3bc 1e75 eb3c
000002c0: f989 b63b 4638 d1bd 110e 92bd 59a1 ef3d
000002d0: 60d6 883d b17c 27bd 4ef0 08bc 0d40 e83e
000002e0: fe77 59bd 4bef a53d 06f7 67bd fd0b 5939
000002f0: 9379 533c 3410 b63d 1722 9bbc d472 f8bd
00000300: 975c ecbd 0d99 593e 337c 9e3d 0aa0 18bd
00000310: dadb 13bd 3f76 113d 893e 23bd 8b1b fd3c
00000320: 7b12 16be 7f5a 313c c98c 943c 6e4b ce3c
00000330: c7aa 893d eb03 4abd cbb6 70be 93e6 b3bd
00000340: 6bba 72bc 7d62 a43d 5c6b 29bd 4be2 d6bd
00000350: 027e dcbc e9ad 183d e9cb c43d 73cd 00be
00000360: 2d09 ebbc 3fa4 233e e43c 47bb 089d 193d
00000370: 55dd 2b3e c8fe 4dbe 77a8 27be 6dfe 323d
00000380: b53e 403e 4298 71bd 6120 983c e57d 943d
00000390: 75f0 00be e630 b7bb 4626 a8bd 67d4 963e
000003a0: eb17 7b3c a1d2 043e fd93 2ebd 3a31 41be
000003b0: b551 bfbc ee18 b43d a372 0c3c 1599 2dbd
000003c0: 6498 4c3b 1d5a 12be 994e 90bd 477b f8bc
000003d0: 9c5d 5cbd 9c0f 563d 6f77 383e 5ea1 643c
000003e0: 0318 45bd f8ae 01be 6843 253d f6dd eb3d
000003f0: 2f51 bcbd da36 bdbd 1eeb 8ebd 5495 263d
0.09924929 -0.019860093 -0.014939281 0.008233224 0.17266376 0.100253895 -0.16689752 0.024623603
-0.053091142 0.13436201 -0.0443616 -0.013540486 0.16246088 -0.06750494 0.08280194 0.03951928
0.003664069 -0.020642135 -0.04735649 -0.15945175 -0.051763207 0.081612356 0.015383512 -0.09702197
-0.06937222 -0.0028811821 -0.13586044 0.14207675 -0.09481369 0.1648932 0.089162 0.062447466
-0.2363874 -0.15908432 -0.08814511 0.03645338 0.18399797 -0.014141578 -0.04174778 -0.06883626
0.01265028 -0.058997434 0.0073750485 -0.07661004 -0.066178046 0.059389178 -0.020382341 0.037358604
-0.05794894 0.0065686633 -0.014136198 0.09805845 0.006072879 0.042316705 -0.024540242 -0.11516678
-0.016833957 -0.11951029 0.009519634 -0.059040125 0.037276372 0.1550386 0.0555705 -0.14240071
-0.08363051 -0.018944506 0.10919229 0.026874317 -0.10228376 0.04277479 0.1994223 -0.0092824
0.15068756 -0.25074276 -0.026821043 -0.035501905 0.021039758 -0.105084255 -0.0087108845 -0.006741099
-0.028668445 0.048305646 -0.14031197 -0.0042938883 0.04780055 -0.06476871 -0.0094755925 0.17237899
0.009225959 -0.010884692 -0.13792248 0.032510255 -0.058487758 -0.13421142 0.029367173 -0.037932817
-0.016078517 -0.08870341 -0.024706291 -0.020813674 0.120766565 -0.0041249343 0.03153406 -0.27521718
-0.016650058 -0.08869321 -0.18319401 -0.15382028 0.07607672 -0.02321453 -0.05597349 0.003744243
-0.009012928 0.08867882 -0.26993248 -0.25075114 -0.05143768 0.06792642 -0.10423453 -0.12503502
-0.048005164 0.13959958 -0.02697973 0.01184562 0.04739335 0.10934687 0.01178362 -0.20663494
0.14808242 0.043457016 0.036713246 -0.061695207 -0.17203574 -0.053839587 -0.029422823 0.13518588
0.14298682 0.062889576 -0.02356195 -0.05716375 -0.054170005 -0.009829934 0.005476278 0.14842221
-0.032354854 -0.01340504 -0.09306737 -0.21920098 0.240178 0.06590836 -0.053673454 0.026399659
-0.06395334 0.0057460815 0.095351 -0.037625827 -0.23019691 0.0063491995 -0.097984515 -0.03432987
0.25690448 -0.009551305 0.05893706 -0.057921283 -0.074337296 0.050091658 -0.015883716 -0.11656075
0.08695717 0.03464457 0.1151552 0.11863833 -0.035461202 0.057009477 -0.027717486 0.02874237
0.005570647 -0.102158114 -0.07131589 0.117006965 0.06681514 -0.0408904 -0.008358074 0.45361367
-0.05309295 0.08102282 -0.056632064 0.00020699199 0.0129074035 0.08889809 -0.018937154 -0.12131277
-0.115410976 0.2124979 0.07738533 -0.037262 -0.03609834 0.03551316 -0.03985456 0.030896923
-0.14655487 0.010824799 0.018133538 0.025182452 0.06722026 -0.049320143 -0.2350723 -0.08784213
-0.014814953 0.08026598 -0.04136215 -0.10492381 -0.026915554 0.03727523 0.09609205 -0.12578373
-0.028690899 0.15980624 -0.0030401284 0.037503272 0.1678365 -0.20116723 -0.16372858 0.04369967
0.18773921 -0.058983095 0.018570127 0.07250575 -0.12591727 -0.005590546 -0.08210425 0.29458925
0.015325527 0.12970974 -0.0426216 -0.18866435 -0.02335439 0.087938175 0.008572253 -0.04238232
0.0031218762 -0.14292188 -0.07046241 -0.03033222 -0.05380021 0.05226098 0.1801431 0.013954489
-0.048118602 -0.12664402 0.040347487 0.11516945 -0.09195172 -0.09238978 -0.06978439 0.040669754

arith.constant3 f4 [64, 3, 3, 32]
00000000: b5af e6bd 228c a23d 093e 08bd d2fa a5bd
00000010: 107f 4ebd 2396 de3c 7c34 66be bb0b 073d
00000020: 187c e9be e39d 233e 118e 683e 9200 d3be
00000030: 61d3 bebd a123 5e3e 2ba8 63be dfa6 07be
00000040: ea9a 503d c6f8 b63d 28b3 133b bf5d 36be
00000050: 9a82 0abe 5842 9ebd b13c 47bd 4d48 8c3e
00000060: 016d 5fbd aa60 ccbd c9f9 f73d db68 69be
00000070: 412c edbd d7d5 0d3c 0f71 f33c c1fe 043d
00000080: 602f b8bd 2cc1 703e 5901 f83d 3af4 83be
00000090: a630 a5be e072 9cbd 0276 e4be 6e8e 953c
000000a0: 6d55 6abe 4b8a b43e 5594 9a3e 502f 43be
000000b0: e94e 98be 5233 803e be09 b1be 2c2b 053d
000000c0: 8330 b0bd 53b6 2e3b 9f2b e2bd 3cb5 2fbe
000000d0: 2b34 fcbd 6bfe 28bd eed2 b23d 05cc ca3e
000000e0: abbf b23e 9412 89be 9100 cd3d 1012 a8bd
000000f0: a5d0 e6bd 35cb b3bc 1a5e 543d 34ef a8bd
00000100: 8663 abbb d505 56be f3e3 b2bd 190e 8fbd
00000110: 4325 563e 0446 47be 1f33 ac3c 3e1c 44bd
00000120: ec38 57be a08f 603c bf03 b43b 6d67 b3bc
00000130: 31ba 353d 3b77 3a3c 80c1 573e 063c 8dbd
00000140: a573 bdbc 399a 583e ae3f 843c d825 15be
00000150: 3dfd 80be 8095 89bd 2e3b 2dbe c7e5 073d
00000160: 09d5 ad3e b9b9 f4bd 8b1c cfbc e042 e63c
00000170: ac6b bf3d cfed 35be e738 7ebd 3a33 073e
00000180: 1714 8dbe c8b4 96be 48ec f03d d959 0cbd
00000190: 8d06 9dbe 533f 23bd acde 043d 3b09 1f3b
000001a0: 6061 993e db6c cebc 3056 a73d d604 64be
000001b0: 2dbd c8bd 7f44 123e 6fb6 f7bd e120 eabe
000001c0: 9bbf 3b3a a3b7 a8bc b5d0 25bd b96b 883d
000001d0: 00e7 b1be a8ca 7f3c 83cb adbe c732 9e3c
000001e0: 2268 bcbd 45c0 a53e 2096 14bc ea0d 54be
000001f0: 1256 263e 4c65 4a3d 2378 8b3d f69e 50be
00000200: d28e 84be 0eb8 01bc f21f f83b 4bd7 25be
00000210: 13c3 fdbe fa1d 4a3c 1a8c c83c 231d c4bc
00000220: 7274 603e 72f8 2f3e 23a2 243e a6ef 93be
00000230: b9c1 19be d0a1 113e feac 64be 0f4c 8ebd
00000240: be4e 9a3c 2b4d 1a3e c708 39be 6587 323e
00000250: 8ffa 89be 939d a63d f89a f7bd e759 623e
00000260: 810f 2d3e f516 9e3e f43a e23d caba 3ebe
00000270: a8f7 523e 15cd 17bd b6a8 1c3c c290 05bb
00000280: 71cf 15be 5d02 22be 67be 343d 8c73 d03c
00000290: 601b 63bb afe5 193d 3599 85bd ba8d d1bd
000002a0: f49d 8d3c 4195 8dbd d2bc ed3d 2ca9 4b3d
000002b0: a9ee 31bc 95b7 87bb a2a1 22bd 083e 663c
000002c0: 582d 893c 7142 203d 5852 2dbe 0a4c 413d
000002d0: 27a3 14be 6d30 973d ff52 c1bd d4cb 963b
000002e0: 8fa1 29be 1a28 c4bc 36f0 28bd b261 ab3d
000002f0: fe90 f4bd af72 d93c c230 863a dec8 0f3d
00000300: 9e86 84bd a8c6 62bc 9a9a 7fbe f8d3 b93c
00000310: d99f bebe 472b b93c 7929 033d c17f b43d
00000320: 21e9 8c3c 15bf 813e 1e06 1f3d deef 753e
00000330: 9063 f13d 4816 653e 2017 713e 425e 68be
00000340: 8d8b 32be dc1c 3abe 3700 03be 4d3e ad3d
00000350: 0597 7dbe 8214 2fbd b813 9cbe 5086 903e
00000360: eec9 9fbd ec02 82bd 5ab7 4c3d 738e 1b3e
00000370: 2895 35be 7ae9 c43d 6d8c c53d 555e e7be
00000380: 5fc8 33be 488a 7c3e e5a4 943d 9c1f 72bc
00000390: 4b48 f9be 47f2 37bd 6410 fb3b 3678 543d
000003a0: 6f57 a43e 405d a23d 998d 4e3d 650f 613c
000003b0: 8a96 2fbe d32c 523e e503 0ebd 0959 013e
000003c0: 1529 42be de43 77be e178 82be 6785 00bc
000003d0: e7b3 213c 7f40 9bbd 58fd 523e f7ec 913e
000003e0: c91c 283e 6081 6bbc 2c61 843c e3bb 843d
000003f0: 88b7 0c3e 6205 ae3c 445c e53d 5059 82be
-0.11263982 0.079368845 -0.033262286 -0.08104481 -0.050414145 0.0271712 -0.22480959 0.03297017
-0.4560249 0.15978198 0.22710444 -0.41211373 -0.09317661 0.21693279 -0.2223212 -0.1324725
0.050928988 0.089341685 0.0022537205 -0.17809199 -0.13526383 -0.07727498 -0.048641864 0.2739891
-0.054547314 -0.09979375 0.121081896 -0.22793905 -0.115807064 0.00865694 0.029716996 0.032469515
-0.08993411 0.23511189 0.12109632 -0.25772268 -0.32263678 -0.07639098 -0.44621283 0.018256392
-0.2288415 0.3526176 0.30191293 -0.19061017 -0.29747704 0.25039154 -0.34577745 0.032511875
-0.08603003 0.0026658967 -0.11043476 -0.17158979 -0.12314638 -0.041258257 0.08731638 0.3960878
0.34911856 -0.26771986 0.10009874 -0.0820657 -0.112702645 -0.021947483 0.051847555 -0.082487494
-0.00523037 -0.20900662 -0.08734884 -0.06985111 0.20912652 -0.19460303 0.02102047 -0.047878496
-0.21017808 0.013706118 0.0054936106 -0.021899903 0.04436702 0.011380966 0.21069908 -0.06896214
-0.023126433 0.21152581 0.016143646 -0.14565217 -0.25193205 -0.06717968 -0.16917107 0.033178117
0.33951595 -0.11949486 -0.025282165 0.02810806 0.09346709 -0.17766498 -0.062065985 0.13203135
-0.2755439 -0.294348 0.11763817 -0.034265373 -0.3066906 -0.039855313 0.03243892 0.0024266976
0.29957104 -0.02519839 0.08170736 -0.2226747 -0.098017074 0.14283942 -0.12095343 -0.4572821
0.00071620353 -0.020595377 -0.04048224 0.066611715 -0.34746552 0.015612282 -0.3394433 0.019311322
-0.09199549 0.32373253 -0.009068996 -0.20708433 0.1624377 0.04941301 0.06810024 -0.20373139
-0.25890213 -0.007917417 0.0075721676 -0.16195409 -0.49562892 0.0123362485 0.024480868 -0.023939675
0.2191942 0.17184618 0.16077475 -0.28893775 -0.15015306 0.14221883 -0.22331616 -0.06948101
0.018836375 0.150685 -0.18069755 0.17434461 -0.26948974 0.08135524 -0.12090105 0.22104608
0.16900446 0.3087689 0.11046401 -0.18625942 0.20602286 -0.037060816 0.009561708 -0.0020380472
-0.14629914 -0.15821214 0.044126894 0.025445722 -0.0034653768 0.03757256 -0.065233625 -0.1023211
0.017287232 -0.069132335 0.1160828 0.04972188 -0.010860124 -0.0041417577 -0.039704926 0.014052875
0.016745254 0.039125863 -0.16925943 0.047191657 -0.14515363 0.07382283 -0.094396584 0.004601935
-0.16565536 -0.023944903 -0.041244708 0.08368243 -0.119417176 0.026543943 0.001023792 0.03510367
-0.06470989 -0.013841309 -0.2496132 0.022684082 -0.3723133 0.022603644 0.032021973 0.088134296
0.017201008 0.25341097 0.038824193 0.24017283 0.11786568 0.22371781 0.23543978 -0.22692207
-0.17436047 -0.18175071 -0.1279305 0.084591486 -0.2476464 -0.042744167 -0.30483794 0.28227472
-0.07802187 -0.063482136 0.049979545 0.15191059 -0.1773268 0.096148446 0.09645925 -0.45189157
-0.17556904 0.24662125 0.07258014 -0.014778044 -0.48687968 -0.044908788 0.007661866 0.051872455
0.32097957 0.07927942 0.050428007 0.0137365805 -0.1714727 0.20524912 -0.034671683 0.1263162
-0.18960984 -0.24146983 -0.25482848 -0.007844306 0.009869552 -0.07580661 0.20604455 0.28501102
0.1641723 -0.014374107 0.016159616 0.06481149 0.13741887 0.021242801 0.11199239 -0.25458765

arith.constant4 f4 [43, 64]
00000000: e419 be3d 4787 0bbd 7b0d 18be 4626 2abf
00000010: fd49 c4be 765e 65be e3f3 84bf 7e60 2b3e
00000020: 606c 9cbe 593f 223e c5ed 82be f495 453e
00000030: 53cc 4abe 0ac1 d7be 2b6f abbe aa89 e2bd
00000040: 5d2b 8dbd 071a 34be 9b14 3a3e a3e7 1abe
00000050: 497a c2be 31ee 393e e88f f3bb 25dd e13d
00000060: 3d33 783c 1256 29bf c980 10be d005 33be
00000070: 39f4 42bd bf8d 56be 8974 64be bc8b b8bd
00000080: f6fe 743e e2d6 73be a071 023d 0bcb 143e
00000090: 5e2f 58be 1cd6 c6be 4f63 5a3d 5445 3bbe
000000a0: a4c5 003e 6dc6 22be 4e1e ee3d b34c 88bd
000000b0: 0ae7 6ebe 6776 233e 66fc adbe 8e07 f63d
000000c0: 863e b73d 51e6 7cbe e550 d5be 8ae4 ffbe
000000d0: 77ad 9dbe 2e64 d13c f130 453e b6b8 edbe
000000e0: ee9b c3be 7a2f c63d d9a8 c23d bfad 3e3e
000000f0: 8488 273e 8a63 2fbe 7d4f 80be b8d9 23bf
00000100: a84d 26be 2cfa 45be 6b4b aebc 0f13 05bf
00000110: 2b04 a2be 711e a4be 6536 17bf 5e29 363e
00000120: 6c96 6a3d f06c ecbc f0c7 ef3d 5652 3b3e
00000130: 9002 fcbd dd11 afbe f372 e2be 6f1a d1bd
00000140: 1b59 da3d c14f 623e da42 223e 672d 173e
00000150: aa4a 8cbd e229 ebbd 6aa4 3bbe 7729 aabe
00000160: 8be5 393d fb6d f4be 53a8 163e a9df 2dbe
00000170: 1676 17bd ce97 013e 8193 63bc d153 3d3e
00000180: 61ca 823e 50c5 143e aa85 05bd 6a8a 483d
00000190: 039d ad3d eee9 873d 3326 3bbe 758f a2be
000001a0: 95e9 a9be ca20 283e dbed 263e 88cd 283d
000001b0: 7039 14be f652 3e3e 1024 a1be d565 69ba
000001c0: 0957 90be 4aab 9abd 5f0a 95be decf f8be
000001d0: db17 74be 35af 8abc c913 783e adc2 d7be
000001e0: e31a 42be c7a2 53be 3ec5 22bc 8b3e 4d3e
000001f0: 7bae 5cbe 1e7f 213d e22c 93be dbff 85be
00000200: 1b29 7ebe 9e87 573e d6f2 29bd 2830 363e
00000210: 23da 97be 44bb 2bbe 4d1c 9d3c 2a71 0a3e
00000220: e45d 103d 0ceb df3d e663 16bf a611 0b3e
00000230: 1287 273e 4859 6fbe c72a 0c3e b2b1 883d
00000240: 00cd fcbb f176 21bf 85c2 a2be 6f2b 0c3e
00000250: e140 3d3e 6b6d 7fbd 70f7 5dbe 6b11 3fbf
00000260: 3624 ffbe 1663 903d 7838 003e 9a01 62be
00000270: 9e36 1f3a f9b7 293e fad4 9ebe 4438 00be
00000280: 41a1 eabd 32c4 343e 23d7 d63d 908f 16bf
00000290: 5d1e b7be e51a 91be fd79 2d3e 46f8 9ebc
000002a0: 313c 303e a899 edbd d595 d2bd 00bf 813d
000002b0: 9212 90bd 522e 1f3e 2f8d 5d3e e9b0 283e
000002c0: 8c71 353e 1973 4a3e 683b 79be 4e83 383d
000002d0: 6de8 a83d e5ae 053e 9481 02be 3f7e 083e
000002e0: d200 f4bd e319 79be 944b 78bd f76a b73d
000002f0: 5964 fe3d f4e5 bdbe 96d8 f3be 66cb 94be
00000300: e46c b6bd 1d7c 4ebe 2783 80bd a20f 75be
00000310: 601e 7bbe 9130 e3be ecbd 22bd 3211 2ebe
00000320: 9c9a d3be 090e 02be 81d5 33bf 68c2 0d3e
00000330: 737c 28be 3434 74be c31b 12bf 076b fc3d
00000340: 9176 d23d 4fbb b5be bdb4 babe 5066 16be
00000350: 5576 9cbe ad0b 71be 3c16 3bbe c4c4 43bf
00000360: c8af 933d 0c5a 89be 5ae5 2e3e d889 edbe
00000370: 6a44 283c aa8b 6bbd ea42 40be beff aebd
00000380: 3cf5 1dbe df72 413e 5f56 3f3c c88c 143e
00000390: ab2f 4cbe ec14 293e 0531 0fbe 834e 953d
000003a0: 9dab c5be 6363 a8bc 0184 01bf 1260 313e
000003b0: 03e5 aabe 65fe 86be ae0a 9abe 9f30 50be
000003c0: 1c2d e0be 0d7f bebd 391e 2a3e b453 54be
000003d0: 91af 1d3e 885f 1e3e 7592 01be f6fc 343e
000003e0: 7387 07bd 1ed0 c2be 6236 52be 5fda 323e
000003f0: c6e4 ebbd bc48 51be bd26 a9bd a311 383e
0.09282282 -0.034064557 -0.14848892 -0.6646465 -0.383377 -0.22399315 -1.0386928 0.16736028
-0.30551434 0.15844478 -0.2557203 0.19295484 -0.19804506 -0.42139465 -0.33483252 -0.110614136
-0.068930365 -0.17588054 0.18171923 -0.15127425 -0.3798392 0.18157269 -0.0074329264 0.11028508
0.015148935 -0.6614696 -0.14111628 -0.17482686 -0.04759619 -0.2095251 -0.2231008 -0.09011027
0.23925385 -0.2381244 0.031846642 0.1453058 -0.21111819 -0.38835227 0.053317364 -0.18288165
0.12575394 -0.15896006 0.11626874 -0.06655254 -0.23330322 0.15963136 -0.33981627 0.1201316
0.08947472 -0.24697234 -0.4166328 -0.4997905 -0.30796406 0.025560465 0.19256951 -0.46429986
-0.38204902 0.09677024 0.095048614 0.18620966 0.1636067 -0.17127815 -0.25060645 -0.6400409
-0.16240561 -0.19333714 -0.021276196 -0.51982206 -0.31643805 -0.32054475 -0.59067374 0.17789218
0.05727236 -0.02886054 0.11708057 0.18293127 -0.12305176 -0.34193316 -0.44228324 -0.1021012
0.10661527 0.22100736 0.15845814 0.14763413 -0.068501785 -0.11482598 -0.18324438 -0.3323476
0.045384925 -0.47740158 0.14712648 -0.16979851 -0.03697785 0.12655565 -0.013890148 0.18489005
0.25545028 0.14528394 -0.032598175 0.048960127 0.08477213 0.066364154 -0.1827629 -0.31750074
-0.3318602 0.16418758 0.16301672 0.041211635 -0.14475036 0.18586335 -0.31472826 -0.0008903419
-0.28191403 -0.07552202 -0.29109475 -0.4859609 -0.23837225 -0.016929248 0.24226297 -0.42140713
-0.18955569 -0.20667563 -0.0099347215 0.2004339 -0.21550934 0.03942787 -0.2874518 -0.26171765
-0.24820368 0.21047828 -0.041491352 0.17791808 -0.29658613 -0.16770655 0.019178534 0.13519731
0.03524579 0.109335035 -0.5874618 0.13580951 0.16360119 -0.23373902 0.13688193 0.06674518
-0.0077148676 -0.63072115 -0.31789032 0.13688444 0.1848178 -0.06236021 -0.21676421 -0.7463595
-0.49832314 0.07050149 0.12521541 -0.22070923 0.0006073507 0.16574086 -0.31021863 -0.12521464
-0.11456538 0.17652968 0.10490253 -0.5881281 -0.35765353 -0.2834083 0.16941066 -0.019405495
0.17210461 -0.11601573 -0.102824844 0.063352585 -0.07034792 0.15545014 0.21635889 0.16473736
0.17719096 0.19770469 -0.24339068 0.045047097 0.08247457 0.13054998 -0.12744743 0.13329409
-0.11914219 -0.24326281 -0.060618952 0.08955949 0.124214835 -0.37089503 -0.4762618 -0.2906143
-0.08907488 -0.20164533 -0.06275015 -0.23931745 -0.24523306 -0.4437299 -0.039731905 -0.16998747
-0.41328895 -0.12700666 -0.70247656 0.13843691 -0.16453724 -0.23848039 -0.5707361 0.12325101
0.10276521 -0.35494468 -0.36466017 -0.14687467 -0.3055903 -0.2353961 -0.182702 -0.76472116
0.07211262 -0.26826513 0.17079678 -0.4639423 0.010270217 -0.05750624 -0.18775526 -0.08544873
-0.1542558 0.18891476 0.011678307 0.14506829 -0.19940059 0.16511887 -0.13983543 0.072903655
-0.38607493 -0.020555204 -0.50592047 0.17321804 -0.33377847 -0.26365963 -0.30086273 -0.20331047
-0.43784416 -0.09301577 0.16613092 -0.20735055 0.15399005 0.1546613 -0.12653525 0.17674622
-0.03308816 -0.38049406 -0.20528558 0.17466114 -0.115182444 -0.20437902 -0.08259342 0.17975478

arith.constant5 f4 [64, 1024]
00000000: 5b45 123d cedc b13b 000c 28bd 70fc 2b3d
00000010: 7b11 debc 3556 22ba 6c59 83bd 39d6 99bd
00000020: 66f4 78bd 9424 2dbd d2b7 b8bd f4f1 ce3c
00000030: 8c86 6e3d c0f6 8bbc 6d95 1c3d 0d7c 50bd
00000040: 739c 383d 1f9c e23b ba72 853d 281c 26bc
00000050: fdd4 223d 7036 87bb 10ca b53c 289b d1bc
00000060: a67b c43b 143b 323d 084e 97bc 0fad e23c
00000070: 47e2 27bd 0096 713a 3600 953d e406 0f3c
00000080: 5c7d 7e3d 9eb4 14bd 52e9 063d 2614 333d
00000090: 8014 943c 24a5 c83c 4ae7 7c3c 05e5 bdbc
000000a0: 5d21 4c3d 2108 3ebd 2ac8 3ebd 9499 773d
000000b0: 5889 9fbc 261b 633c 7ba0 22bd ac3d bbbc
000000c0: adfd a3bd 816b cabd 5dc4 50bd dccd 56bd
000000d0: 73f3 cc3c 9b70 75bd 853b 4d3d 9383 7abd
000000e0: f741 40bd 5570 033d c35c 9b3b 5186 b73c
000000f0: ce6e 1cbc ea86 2a3d 0656 163d c6ea 5dbd
00000100: a2af 53bd 6078 8fbd 0ff8 373d 7e16 65bc
00000110: b4a0 7bbd 5a36 e03b f840 cf3c bd28 103c
00000120: d57a 1fbd c29b 9cbc 99be 1f3d b045 703c
00000130: 1082 893c 5b66 1dbc ccf3 adbd 778b dd3c
00000140: f1ca 9bbc 106c 493d 0671 9c3c e46b d2bc
00000150: f7ba c2bb 3f8f 49bd 3644 63bd 5f23 92bd
00000160: 62f7 1ebd 6c05 803c cb4c 0fbd 0cc4 0d3d
00000170: d8e0 6cbc 38bf 58bd bc25 363d d0a2 afbd
00000180: c456 443d 0420 093a 7ef7 14bd 9afd 8dbc
00000190: a08a 853d 4887 2abd 0b28 503b 64ab 8dbd
000001a0: 75a0 713d b488 fe3c 591f 703d e0a8 5a3d
000001b0: b46d 81bd 1861 173c ed34 97bd b30c 0f3d
000001c0: e71a aa3c 1e2b 81bd 0a8d 25bd e526 bcbd
000001d0: 411a 6fbc fcf2 223d 3e3b c3bc 5eab 86bd
000001e0: f74d c23c 0f4d 1e3d 36b7 a7bc 781e 00bd
000001f0: 902b 8bbd cad6 86bd 0070 3238 6b7a 77bc
00000200: 11db 0abd a2a9 b0bc eeed 343d 8c82 4d3d
00000210: 3e24 40bd e0d3 913c 58fa 653d 5cd1 833d
00000220: eb13 213d 7428 4bbd 6504 6dbc dad2 9dbc
00000230: b051 af3c 89ca a73b 45c8 4d3d e962 d63a
00000240: c796 43bd 5279 aebd b351 90bd c16d 713b
00000250: c51e 1f3d 961c 003d 0bc6 393c 27c3 29bd
00000260: c2c5 b1bb 4058 62bc 71cc c6bd 91f8 10bd
00000270: a7b6 81bd 4edd 223d 3d95 4abd 26be 7d3c
00000280: f051 b03b 21b9 8c3c 2b98 153d ad43 d13c
00000290: 85b9 49bd 621c 96bb 8321 363d 2808 923d
000002a0: 4f6e 63bd ddf1 2fbd b6b9 08bd 2459 933d
000002b0: ad99 873c 33b3 a2bc e2a5 2b3c f300 27bc
000002c0: 4d7e af3c 2b2d 6dbd 0a93 3c3d 6639 073d
000002d0: 5b57 9bbd 9de3 0ebc 227e 2a3d d6cf 483d
000002e0: c15d 8dbd 288e 90bd c152 fabc 41bb bfbc
000002f0: 4a70 d63c 5d2b 9fbd 7af3 913d f944 79bc
00000300: c667 91bd 7735 133b d05e 103d e9fd f7bc
00000310: 30fd 6bbd 77f7 f33b 4049 83bd 248d 7dbc
00000320: c65a babd 009b 473c ebd0 8abd 003e 453a
00000330: 8152 94bd d532 9e3c f8f6 873d f857 e6bb
00000340: 3f9a d7bc 447f 9bbd 37f7 81bd 3753 24bc
00000350: 5769 073d 965a 213d adc2 84bd b764 433d
00000360: 0951 a73c 9fee 13bd 9123 8bbd cad4 f8bb
00000370: 5ebe 443d 68ea 01bc 7cbf 42bd 2973 8bbd
00000380: a1dd 5ebd 3342 aebc c060 46bd 91c2 a6bd
00000390: beb5 50bd 9f95 493c 9ea0 453d 45f1 d83a
000003a0: 654b 28bd e0ae 02bb e0b0 53bc dc53 43bd
000003b0: da91 a7bd 6c82 833b 6389 24bd 23db 24bc
000003c0: fea3 27bd 277c bcbc fc65 bb3c a0b3 3dbd
000003d0: 2d21 c13b 802f 2a3d a73f a0bd 93e3 79bd
000003e0: 2dcd 59bb 9c5d bebb a4dc 4dbd 6898 e1bc
000003f0: 63c5 7f3d 09a3 3d3d a611 4b3d ff96 a9bc
0.035710674 0.0054279333 -0.04102707 0.04198879 -0.027107945 -0.00061926554 -0.0641354 -0.07511563
-0.06077995 -0.04227121 -0.09019436 0.025261857 0.058233783 -0.017085433 0.03822844 -0.050899554
0.045071077 0.0069155837 0.06516023 -0.010138549 0.039753903 -0.0041263625 0.022191077 -0.02558668
0.0059961854 0.043513373 -0.018469825 0.027670411 -0.04098728 0.0009215772 0.07275431 0.00872967
0.06213127 -0.036305062 0.032937355 0.043720387 0.018076181 0.024492808 0.015436003 -0.023180494
0.049836505 -0.04639447 -0.04657761 0.060449198 -0.01947467 0.013861453 -0.039703827 -0.022856556
-0.08007369 -0.09883786 -0.050968517 -0.052442417 0.02501843 -0.059921842 0.05010559 -0.061160635
-0.04693791 0.03208955 0.0047412827 0.022402914 -0.009547902 0.04163257 0.036703132 -0.054178976
-0.05168117 -0.070053816 0.0449143 -0.013982413 -0.061432555 0.0068424167 0.025299534 0.008798775
-0.0389355 -0.01911724 0.039000127 0.014665052 0.016785651 -0.009606923 -0.08493766 0.027044041
-0.019017668 0.049175322 0.019096863 -0.025686212 -0.005942698 -0.049208876 -0.055484973 -0.07135653
-0.03881014 0.015627585 -0.034985345 0.034610793 -0.014457904 -0.052916735 0.04446958 -0.08575976
0.04793431 0.0005230906 -0.03636884 -0.01733284 0.06520581 -0.04163292 0.0031762149 -0.06917456
0.058990914 0.031071045 0.058623645 0.053383708 -0.06319752 0.009239458 -0.07383142 0.03492422
0.020764781 -0.06307052 -0.04041771 -0.09187106 -0.014593662 0.03978251 -0.02383196 -0.065756544
0.023718817 0.038647708 -0.020473104 -0.031279057 -0.06795418 -0.065839365 4.2542815e-05 -0.01510487
-0.033900324 -0.021565262 0.04417222 0.050173327 -0.046909563 0.017801225 0.05614695 0.064364165
0.039325636 -0.049599126 -0.01446638 -0.01926558 0.021401256 0.0051205796 0.05023982 0.0016356382
-0.047751214 -0.08519234 -0.07046833 0.00368391 0.038847703 0.03127726 0.011338721 -0.041445877
-0.005425186 -0.013814986 -0.09706963 -0.0353933 -0.06333666 0.039761834 -0.04945873 0.015487229
0.0053808615 0.01717812 0.03652207 0.025544966 -0.04924919 -0.00458102 0.044465553 0.07130462
-0.05552512 -0.04295527 -0.033380233 0.071947366 0.01655277 -0.01986084 0.010476561 -0.010193097
0.02142253 -0.057904404 0.046038665 0.033013724 -0.07585021 -0.008721259 0.041624196 0.049026333
-0.06902648 -0.07058364 -0.030557038 -0.02340472 0.02617659 -0.07771943 0.071265176 -0.015214198
-0.07099871 0.0022462287 0.03524667 -0.030272441 -0.057614505 0.0074452716 -0.06410456 -0.015475545
-0.09099345 0.012182951 -0.06778129 0.00075241923 -0.07242299 0.019311348 0.066389024 -0.0070295297
-0.026318667 -0.07592633 -0.063459806 -0.010029606 0.033059444 0.03939303 -0.06482444 0.04770347
0.020424383 -0.03611624 -0.06793893 -0.007593726 0.04803311 -0.007929422 -0.047545895 -0.068090744
-0.05441058 -0.0212718 -0.04843211 -0.08142579 -0.050954573 0.012303739 0.04824888 0.0016551396
-0.041087527 -0.001994066 -0.012920588 -0.047687396 -0.08182116 0.0040133502 -0.040170085 -0.010062012
-0.04092788 -0.02300842 0.022875778 -0.046313882 0.0058938474 0.041549206 -0.07824641 -0.061008047
-0.0033233867 -0.005809499 -0.050259247 -0.027538493 0.062444102 0.04629806 0.049577378 -0.020701883

arith.constant6 f4 [64]
00000000: 9159 7fbc 3aa3 3bbc 4659 2cbd e57a 573d
00000010: ca70 a03d 9fdd a13c c36c 6c3d c498 89bc
00000020: 22ac 7e3d c47c b7bc 5f2e 393e 6ee4 2a3e
00000030: 1dd3 db3d 32d6 10bd fac6 b0bc 1508 91bd
00000040: 5c89 c6bc 0bc7 443e 3678 323e 5c49 3dbd
00000050: de90 953d d69d 31bd c9fe d73c ac5e 2f3e
00000060: 9074 083e 3db0 fd3c 4707 703d f8bb 923d
00000070: 3de3 c5bc 9aec abbc 5f30 c1bc 9724 41bc
00000080: 48e1 753d 7304 813d 6c37 57bc d247 983d
00000090: bd95 533e 8343 063e aad6 aebc 95f3 313d
000000a0: 1799 a43d acc2 99bc 7e02 453d 7ffc 07bd
000000b0: 90c9 c33b 79f9 173d d726 7c3d f81d f4bb
000000c0: 7391 e53d 1010 6ebc 5f40 db3d ceb1 1b3d
000000d0: 1a21 1a3d ebc6 debc e944 d43d 5148 de3d
000000e0: 970e cfbc aa2a ed3d 51bb 8ebc b22a 083e
000000f0: 8d97 82bc 94ed 243d f54c 1a3c 499f 913d
-0.015585319 -0.01145249 -0.042077325 0.052607436 0.07834013 0.019758997 0.05772091 -0.016796477
0.062175877 -0.02239836 0.18084095 0.16688702 0.10733626 -0.035360523 -0.021579254 -0.0708162
-0.02423542 0.19216554 0.1742867 -0.04621254 0.07303022 -0.043363415 0.026366608 0.17125958
0.13325715 0.030967826 0.05860069 0.071647584 -0.024156207 -0.020986844 -0.023582635 -0.011788509
0.060029298 0.06299677 -0.013135772 0.07435574 0.2066259 0.13111691 -0.021342594 0.04344519
0.08037012 -0.018769585 0.04809808 -0.033199783 0.005974956 0.03710315 0.061560478 -0.0074498616
0.11209383 -0.014530197 0.10705637 0.038011365 0.037629224 -0.02719446 0.10364706 0.10853637
-0.025275512 0.11580403 -0.017423304 0.13297537 -0.015941406 0.040265635 0.009417762 0.07110459

arith.constant7 f4 [43]
00000000: 9ccd 4fbe bfb8 dd3a 0c20 f9be 304f 393d
00000010: 39f1 4dbe 62e3 80be 5c17 c8be 8a69 8d3b
00000020: 99c9 d7be 3af1 d8be 5dbc 4f3e aeff fdbd
00000030: 74b9 863e 473c b2bc c89d d1bd a270 b1bd
00000040: af3a 863e e428 8c3e 5386 6b3e 2900 6e3e
00000050: edd8 e93d c182 7a3e 279b 2e3e 2253 533d
00000060: 29ae 2f3e 08e9 553e f1dc 333d 46f0 fdbd
00000070: d0dd e0be c4d2 fcbe d266 bbbe fd85 f2bb
00000080: 74a6 13be a57f 05be 0d23 5fbd e9e8 bf3d
00000090: 018a b53c e50e a0be 9df3 8b3e ab9a 383e
000000a0: eca6 883a f567 a53e 2f2c b7bd
-0.20293278 0.001691602 -0.48657262 0.045241535 -0.2011155 -0.2517348 -0.39080322 0.0043155598
-0.42145994 -0.4237154 0.20286699 -0.12402283 0.26313365 -0.021757258 -0.102351725 -0.08664061
0.26216647 0.27374947 0.2300046 0.23242249 0.114183284 0.24463941 0.17051373 0.051592954
0.1715628 0.20889676 0.043911878 -0.12399344 -0.4391923 -0.4937955 -0.36601883 -0.0074012266
-0.14418966 -0.13036974 -0.054476786 0.09370596 0.022160532 -0.31261364 0.273343 0.18027751
0.0010425723 0.32305875 -0.08943974

sequential_1/conv2d_1/convolution f4 [32, 3, 3, 3]
00000000: c9b7 fd3d c615 6abd 4315 df3d 4b42 943e
00000010: 7c78 a93c 29ed 27bd c8fc 8c3e 2d9d 3d3e
00000020: 2836 eb3d d714 3f3c cc2a d73d 597b 6e3d
00000030: da09 0abd 74c3 223e b615 f4bd f361 833e
00000040: 50c6 a03e 5f17 873d cffa 26be 0a53 aebe
00000050: 78d2 9bbe b4d5 3cbe c07e c4be 4221 92be
00000060: 5036 423d 5a25 2bbe cce3 30be 7217 2dbd
00000070: 2f99 b83d 7abe 0d3e 8d5d 4bbe 8cfe 703c
00000080: 6cfb 20be 995e 25bf 0525 eabe c6ea b3bd
00000090: dd40 af3e c050 b03e 4c5b 883e e0b8 31be
000000a0: 8fed d73d 59cd 283e 4803 08bf 4cd1 a4be
000000b0: 269e bdbd b4d4 cf3e 9b44 673e aac5 a93e
000000c0: 3306 5d3e d57c 9c3e dd26 273e 6da2 38be
000000d0: f4a9 d9bd 70d8 853d 6fe2 e4bc 83dd 973c
000000e0: fc65 493e 7a7b 963c 36c0 f03c bbc6 8f3d
000000f0: b28b 41be 2e17 9c3d 8262 253e c164 dd3d
00000100: fb0c 98bd fa61 c63d 1d25 923c 3926 b23c
00000110: 6d5c 1e3e d44e 57be 6fcb 1dbe df1b 0b3c
00000120: ff2e b83c ce89 163d 03e8 5f3e f60d 30be
00000130: 86f8 b4bd f8a3 823c 873c 95be a44f 08be
00000140: 2268 2cbe b155 083e c65d d4bd 5cf2 d0bd
00000150: 09d7 5fbc 7983 39bd cb5b 8ebe 877f 7d3d
00000160: 3342 133e 84b6 9cbd 3677 c3bc 0d71 27bd
00000170: de4c 97bd e07e a9bd c9a9 f63d a87c 00bd
00000180: bcd0 683d ba61 683e d428 f03b 25bd 5bbd
00000190: 629b 97be 756a 82be 7eae a53d 7d91 bebd
000001a0: 709a ab3d 7531 563d 64fd fc3d 82bd da3d
000001b0: 3f27 9ebe 8d47 8ebd 34cb c63d b6c0 69be
000001c0: 3b4d 7abe f342 09be dea4 823e 98c4 9e3e
000001d0: dfcc 103e 3c8f debe be51 8ebe 6660 bebd
000001e0: 23c0 3abe ec16 a63d eccb cdbd 9481 2e3e
000001f0: af41 c53e 5a83 793e e1a9 6fbe 8ab2 97bd
00000200: 6871 2fbd 93cb 013d 372b 003e a13e 303e
00000210: 8459 283e 1510 a13e e73d 383e c2dd e8bc
00000220: c0f4 353d c4fb 0a3c c07d a53d d701 fa3d
00000230: 94f4 eebd 24ed 883d e917 8a3d 0862 58bd
00000240: 2eb8 39bd e42e 3f3e fa0b bfbd a0c1 d23d
00000250: 85e1 383e c952 c53d b1e1 d03c 2638 203e
00000260: 7efe c4bd 4466 383d 7728 b63d ddf1 0abd
00000270: 7f8e aabc a6d4 0c3e e427 7b3d 78cb 20be
00000280: eae8 0f3e 35ff bdbd 1b6a e8bd 1735 313d
00000290: dc12 81bd 5124 423d 335c 623e e1c9 2c3e
000002a0: 609d 343e df4f 723d e429 243e 0bb5 18be
000002b0: 40e7 c0bc f9af 223d 9796 8e3e 961e 1d3e
000002c0: 87f2 833e 4b20 593e 50c9 4b3e a64b 123e
000002d0: f186 e2be c903 b6be c611 cdbe d7ea 8fbe
000002e0: 01aa c1bd c2e3 80be 04f1 043e 03a4 63bc
000002f0: df1c bcbb f536 abbd 0d96 a23d 5deb a13d
00000300: 44c7 e2bc e74f 133d 6faf 303e ceb9 8a3d
00000310: 18bc 1b3e 8dd1 d7bd 1cda 3c3b 1e53 603d
00000320: ac65 eb3c 8052 0b3e dbe4 673e cdcc 623d
00000330: 5abb acbc 77f2 893d 135e 313d 5023 963d
00000340: 5f96 fb3d bea1 d8bd 2415 bbbc 7271 e03b
00000350: 0ffa 0d3e 58b3 45bc 708f b43d 8ca3 2abc
00000360: e1b5 5d3e 8b57 783e df98 613e e7a5 983e
00000370: e51c e33e aeca 0a3e 6d62 a33e b6ab 963e
00000380: 78f7 3c3e 0fb6 0c3e d56a d13d 670b a8bd
00000390: 171d aabd f808 e73d 0532 fd3d bcde 3dbe
000003a0: a893 26bd e4ff 0dbe a1bd 4dbe 2805 35bd
000003b0: c224 30be 5ee6 90be d99e 0dbe f5bf 9cbe
000003c0: 0c3b 82be 8285 ecbe 8de3 9dbe 853e 82be
000003d0: e80d b8bd 8089 97be 236c 4cbe e2e0 a5bd
000003e0: 5eeb b4be 6f9a 01bd 6a5b b3be 1ff2 efbe
000003f0: 37bd 223d d0ff a43a fab5 43bd 9e8a ef3d
0.1238857 -0.05714967 0.10892727 0.28956828 0.020687334 -0.040997658 0.27536607 0.18516989
0.11484939 0.011662683 0.1050621 0.058223102 -0.0337008 0.15894872 -0.119182035 0.25660667
0.314013 0.065962546 -0.16306613 -0.3404773 -0.30434012 -0.18440896 -0.38377953 -0.28541
0.047415078 -0.16713467 -0.17274398 -0.042258687 0.090135925 0.13842192 -0.19859906 0.014709126
-0.1572091 -0.6459747 -0.4573137 -0.08785014 0.34229174 0.34436607 0.26632154 -0.1735568
0.105433576 0.16484584 -0.53130007 -0.3219093 -0.0925868 0.40591967 0.22584765 0.33158618
0.21584396 0.3056399 0.16323419 -0.1803071 -0.10628119 0.06535423 -0.027940003 0.018538242
0.1966781 0.018369425 0.029388528 0.07020327 -0.18900946 0.07621609 0.16150859 0.10810233
-0.07424351 0.09686656 0.017839963 0.021746742 0.15464945 -0.21026164 -0.15409635 0.008490532
0.022483347 0.036752515 0.21865849 -0.17192826 -0.088364646 0.015947327 -0.2914774 -0.1331163
-0.16836599 0.13313939 -0.10369448 -0.102024764 -0.013662108 -0.045291398 -0.27804407 0.061889198
0.14380722 -0.076519996 -0.023860555 -0.040879298 -0.07387708 -0.082761526 0.12044103 -0.03136888
0.05683969 0.2269353 0.007329086 -0.05364718 -0.29610735 -0.25471845 0.08089922 -0.093050934
0.08379066 0.05229326 0.12353018 0.10680677 -0.30889317 -0.06947241 0.09706727 -0.2282742
-0.24443524 -0.13404445 0.2551641 0.31009364 0.14140652 -0.43468654 -0.2779674 -0.0929573
-0.18237357 0.08109841 -0.10048661 0.17041618 0.38526675 0.24366513 -0.23404647 -0.074071005
-0.042832762 0.031688284 0.12516485 0.17211391 0.16440398 0.31457582 0.17992364 -0.028426055
0.044422865 0.008482877 0.080806255 0.12207382 -0.11667743 0.06685856 0.06742842 -0.052827865
-0.045341663 0.18670231 -0.09328456 0.10290837 0.18054779 0.09634931 0.025498243 0.15646419
-0.09618853 0.045019403 0.08894437 -0.033922065 -0.0208199 0.13752994 0.06131734 -0.15702617
0.14053693 -0.092771925 -0.11348363 0.04326352 -0.06302425 0.047397915 0.22105484 0.16873886
0.17638159 0.059158202 0.16031605 -0.14912812 -0.023547769 0.0397186 0.27849266 0.15343699
0.2577097 0.21203725 0.19901013 0.1428667 -0.44243577 -0.35549763 -0.40052623 -0.28108856
-0.09456254 -0.25173765 0.12982565 -0.013894084 -0.0057407464 -0.083600916 0.07938776 0.0790622
-0.027682908 0.035964873 0.17254423 0.06773721 0.15208471 -0.105380155 0.0028816527 0.054766767
0.028735004 0.1360569 0.22645895 0.055371094 -0.02108543 0.067356996 0.043302607 0.07330954
0.122845404 -0.10577725 -0.02283723 0.0068494612 0.13864921 -0.012066685 0.08816421 -0.010414969
0.21651413 0.24252145 0.22030972 0.29814073 0.44357982 0.13553879 0.3191103 0.2942788
0.18453777 0.13741325 0.10225455 -0.082053 -0.0830633 0.112810075 0.12363056 -0.18541998
-0.04066816 -0.13867146 -0.20091869 -0.04419437 -0.17201522 -0.28300756 -0.13830127 -0.30615202
-0.25435674 -0.46195608 -0.3083767 -0.25438324 -0.089870274 -0.29597092 -0.19963126 -0.080995336
-0.3533582 -0.03164142 -0.3503068 -0.4686441 0.03973123 0.0012588445 -0.04778097 0.11696361

sequential_1/conv2d_1/Relu;sequential_1/conv2d_1/add;sequential_1/conv2d_1/convolution; f4 [32]
00000000: cafe babd bc42 8d3b cf40 563e f390 d03c
00000010: 199d 993c d718 8ebd 2ada 853b acb1 3cbe
00000020: b345 763d 7958 493d 0be3 fa3d 60b0 fa3d
00000030: cb6c 3dbc fbbd 203d 4366 623d 102f 9d3d
00000040: fc55 98bb ac6b d43d 3a41 3eb9 dfdc 7f3c
00000050: 5c14 a23d d39c cbbb 293c 073d 2b22 1f3d
00000060: 7ad0 933e b55c 403d 9283 f2bc 14fa 933d
00000070: 2d08 a83d 5b8a 3abd 61f9 d8bb 1cf5 313d
-0.091306284 0.004310934 0.2092316 0.025459742 0.018751668 -0.069383316 0.004084845 -0.18427151
0.060125064 0.04915664 0.12250336 0.12240672 -0.011561583 0.03924368 0.055273306 0.07674992
-0.004648922 0.10372099 -0.00018144111 0.015616625 0.079140395 -0.0062137633 0.033016358 0.038850944
0.28869992 0.046963412 -0.029603753 0.07225433 0.082046844 -0.045542102 -0.006621525 0.043446645
